DL_hw/best_model.pth (torch, 742133 bytes, 79 tensors)

conv1.weight f4 [16, 3, 3, 3]
-0.117270626 0.08409075 0.04089476 0.09746639 0.056678087 0.025360074 -0.23830725 -0.04990228
0.042642374 0.08359758 0.22952671 0.09439778 -0.097592 -0.092285156 -0.10740286 0.015595803
0.15630811 0.14463064 0.11577985 0.060906433 0.14323273 -0.13274689 -0.06829833 0.1388913
-0.23169464 0.02858891 0.16020928 0.0895218 0.16432756 0.020480843 -0.16043887 0.15845418
-0.0010503347 -0.18606696 0.07775242 0.16622847 0.026396113 0.15009409 -0.12352368 0.074706
0.10857687 -0.15494204 -0.030966088 -0.058425147 -0.09274201 -0.024759714 0.090884045 -0.14181392
-0.13461055 -0.16364788 0.17453116 -0.11340073 0.097546995 0.13478063 -0.08163872 -0.00028337684
-0.027409889 -0.09501629 -0.11323685 -0.1609227 -0.11165979 0.15820865 -0.1894783 -0.04144531
0.18321176 -0.046830554 0.17289822 0.10440468 -0.15000387 -0.12944005 0.17897959 -0.1575981
0.105057 0.15901776 -0.16773055 0.08642808 0.19783583 0.05011605 0.15703557 -0.13469137
-0.15516637 -0.16791679 0.15794984 -0.011504622 0.036454167 0.110903434 -0.028362315 0.17008822
-0.16227585 0.17427446 -0.0033534737 -0.036588963 0.009407295 0.15398385 -0.04652967 0.030997228
-0.10409912 -0.15031385 0.025538512 -0.04988667 0.047372304 0.086413294 -0.01452137 0.18765964
0.014045994 0.13570926 -0.02913242 -0.0397244 0.19495817 -0.004614562 0.029322416 0.07146206
-0.10627819 0.042460293 0.14651382 -0.05037057 -0.01915161 -0.120200485 -0.16972762 -0.045338586
0.07886682 0.12459012 0.12890793 -0.15691452 -0.0016923464 -0.10741104 0.013420361 -0.18779351
-0.18226089 0.0028835048 0.17081085 -0.03430977 0.13680005 0.20985223 0.12808679 -0.060050495
-0.047698695 -0.1589924 0.0860379 -0.1889235 0.1498887 0.00041589089 -0.14999561 0.1910633
-0.16880329 -0.13263524 0.041870736 0.17714986 -0.19615091 0.17520893 0.057221774 0.14292887
-0.03868487 -0.046148688 -0.10814706 -0.16319606 -0.03054888 0.14533414 0.18026413 0.036954183
0.13105348 0.025933677 -0.12640029 0.12831452 0.059534736 0.19996066 -0.039163973 -0.024013188
0.05250997 0.009259668 0.12237288 0.0039964654 -0.026076134 -0.03732284 -0.12522356 -0.09624935
0.07564619 -0.051574796 -0.16942726 -0.06640582 -0.19002788 0.14503165 -0.027279316 0.0073744166
0.0024288283 -0.0136003895 -0.0071222596 0.04773326 0.19967322 -0.14513779 0.062056344 0.031399913
0.010654834 0.15024635 0.100097075 0.018744012 0.15108311 -0.19634898 0.115196064 0.010133965
-0.0007786244 -0.014177371 -0.05126855 0.07211208 0.10606916 0.1951828 0.020388963 -0.18501179
-0.19649532 -0.09690913 0.0021303778 -0.06268931 0.113908455 -0.044163488 -0.09950145 -0.1239605
0.18039973 -0.06329226 0.049308725 -0.012680321 -0.16942815 -0.20707095 0.15867937 -0.15373327
-0.20568283 -0.10938019 -0.03683469 0.13904199 -0.13731034 -0.15667762 0.12641568 0.014506734
0.0151797375 0.15138853 0.059773315 -0.06804824 0.09487335 -0.07035693 0.17140676 0.1903366
-0.14007929 -0.057214826 0.008444805 0.18743917 0.024777872 -0.06387152 -0.0007873898 0.14293635
0.07151818 0.17169635 -0.07774957 0.18045816 -0.20581299 -0.13580756 0.07782032 -0.14241587
00000000: 952b f0bd c537 ac3d 4481 273d 759c c73d
00000010: 4827 683d eebf cf3c d106 74be 5566 4cbd
00000020: c5a9 2e3d 3535 ab3d 0d09 6b3e a053 c13d
00000030: 51de c7bd 0000 bdbd 08f6 dbbd 8a85 7f3c
00000040: 3c0f 203e 0e1a 143e fc1d ed3d 0679 793d
00000050: 9aab 123e cdee 07be ffdf 8bbd 8539 0e3e
00000060: 5c41 6dbe 4a33 ea3c e70d 243e 3557 b73d
00000070: 7c45 283e 71c7 a73c 164a 24be d041 223e
00000080: 62ab 89ba 5688 3ebe a93c 9f3d cc37 2a3e
00000090: a93c d83c 44b2 193e fcf9 fcbd 76ff 983d
000000a0: 8d5d de3d 20a9 1ebe 98ac fdbc 354f 6fbd
000000b0: 86ef bdbd e2d4 cabc 6a21 ba3d ab37 11be
000000c0: 59d7 09be 4f93 27be 4cb8 323e a43e e8bd
000000d0: b8c6 c73d ef03 0a3e 3432 a7bd 3292 94b9
000000e0: b48a e0bc e797 c2bd b9e8 e7bd ecc8 24be
000000f0: e3ad e4bd 7301 223e 9906 42be 8fc2 29bd
00000100: dd9b 3b3e 65d1 3fbd 3b0c 313e 1fd2 d53d
00000110: 9d9a 19be ef8b 04be 6d46 373e 6561 21be
00000120: 2028 d73d 8dd5 223e 8fc1 2bbe 3501 b13d
00000130: 7a95 4a3e 7d46 4d3d efcd 203e 89ec 09be
00000140: efe3 1ebe 61f2 2bbe 9abd 213e e27d 3cbc
00000150: f750 153d 5721 e33d 1658 e8bc 9b2b 2e3e
00000160: a42b 26be 0175 323e f4c5 5bbb 4fde 15bd
00000170: 0e21 1a3c f1ad 1d3e e595 3ebd e6ed fd3c
00000180: eb31 d5bd e0eb 19be 2436 d13c f755 4cbd
00000190: 7609 423d 74f9 b03d 0aeb 6dbc d929 403e
000001a0: 2b21 663c 5ef7 0a3e 1da7 eebc 0db6 22bd
000001b0: 1da3 473e c035 97bb 9035 f03c b35a 923d
000001c0: 61a8 d9bd d8ea 2d3d b807 163e 5f51 4ebd
000001d0: d6e3 9cbc ac2b f6bd 14cd 2dbe f4b4 39bd
000001e0: ed84 a13d 1b29 ff3d 7100 043e 33ae 20be
000001f0: b9d1 ddba 52fa dbbd 13e1 5b3c f14c 40be
00000200: 99a2 3abe 2ff9 3c3b 0ae9 2e3e 6788 0cbd
00000210: 5015 0c3e 81e3 563e 2f29 033e 82f7 75bd
00000220: b55f 43bd e7ce 22be a334 b03d 2975 41be
00000230: 6c7c 193e ee0b da39 7398 19be 19a6 433e
00000240: c5da 2cbe 88d1 07be a680 2b3d c666 353e
00000250: c9db 48be f869 333e 6161 6a3d f25b 123e
00000260: 0774 1ebd 6806 3dbd 357c ddbd de1c 27be
00000270: a541 fabc 79d2 143e 2997 383e 455d 173d
00000280: e232 063e dd72 d43c 146f 01be e264 033e
00000290: b2da 733d 7dc2 4c3e 676a 20bd 4eb7 c4bc
000002a0: b214 573d ddb5 173c a29e fa3d c8f4 823b
000002b0: 9e9d d5bc d6df 18bd 9b3a 00be 611e c5bd
000002c0: 64ec 9a3d 1840 53bd 577e 2dbe c6ff 87bd
000002d0: ab96 42be 2d83 143e df78 dfbc 17a5 f13b
000002e0: fa2c 1f3b 2bd4 5ebc d861 e9bb f383 433d
000002f0: 2377 4c3e 009f 14be cb2e 7e3d 329d 003d
00000300: 9d91 2e3c 2eda 193e b2ff cc3d 0b8d 993c
00000310: 88b5 1a3e b50f 49be eaeb eb3d ee08 263c
00000320: 991c 4cba 3448 68bc f9fe 51bd 80af 933d
00000330: ca3a d93d 00de 473e c106 a73c bb73 3dbe
00000340: 1236 49be 4b78 c6bd cf9d 0b3b 4163 80bd
00000350: d648 e93d c6e4 34bd 6bc7 cbbd 01df fdbd
00000360: b5ba 383e 5f9f 81bd f2f7 493d 1fc1 4fbc
00000370: 937e 2dbe 680a 54be d87c 223e 416c 1dbe
00000380: 859e 52be b902 e0bd f9df 16bd 0661 0e3e
00000390: 159b 0cbe 1970 20be 1d73 013e a7ad 6d3c
000003a0: 6fb4 783c 9805 1b3e ddd4 743d e05c 8bbd
000003b0: f54c c23d 4b17 90bd 4185 2f3e 99e7 423e
000003c0: f270 0fbe 185a 6abd 145c 0a3c 0ef0 3f3e
000003d0: f7fa ca3c 12cf 82bd d668 4eba e85d 123e
000003e0: 2078 923d 2bd1 2f3e 2b3b 9fbd 06ca 383e
000003f0: a4c0 52be 2311 0bbe 4360 9f3d 77d5 11be

bn1.weight f4 [16]
0.94529927 0.94860107 1.070321 0.9451819 0.9294046 1.0498846 1.0109006 1.0562285
0.9820338 1.0258415 1.0130613 0.99136245 1.0012021 0.9274822 1.0174731 0.9238284
00000000: 22ff 713f 85d7 723f 4700 893f 71f7 713f
00000010: 76ed 6d3f 9e62 863f 3165 813f 7f32 873f
00000020: 9166 7b3f c64e 833f feab 813f eec9 7d3f
00000030: 6427 803f 796f 6d3f 8f3c 823f 0580 6c3f

bn1.bias f4 [16]
-0.037589785 -0.0070419908 0.027599303 -1.4854522e-05 -0.015386176 0.073682904 0.14739573 0.017571991
0.0058215572 0.08357033 0.058286697 -0.04421544 0.09058627 -0.023396377 0.051536657 -0.001185749
00000000: bff7 19bd 80c0 e6bb ef17 e23c b037 79b7
00000010: 4d16 7cbc 10e7 963d e8ee 163e 23f3 8f3c
00000020: c3c2 be3b ec26 ab3d 08be 6e3d 401b 35bd
00000030: 4b85 b93d c2a9 bfbc 1a18 533d 226b 9bba

bn1.running_mean f4 [16]
0.101376355 -0.05755446 0.09487854 0.060696676 0.028371615 0.059897456 -0.019308921 -0.14738053
0.08055438 -0.10827563 -0.09779305 -0.09788904 -0.14354673 0.120153114 -0.13278851 -0.02366827
00000000: 689e cf3d 3abe 6bbd ae4f c23d 149d 783d
00000010: 976b e83c 0957 753d be2d 9ebc ecea 16be
00000020: b2f9 a43d 9dbf ddbd b947 c8bd 0d7a c8bd
00000030: eafd 12be d612 f63d b6f9 07be f6e3 c1bc

bn1.running_var f4 [16]
0.69591385 0.13513146 0.3532259 0.43580642 0.282508 0.26603815 0.080048606 0.14287725
0.18860085 0.13669088 0.1424551 1.891925 0.39117602 0.21515289 0.31375 0.12769133
00000000: 6927 323f e75f 0a3e 06da b43e 0522 df3e
00000010: e3a4 903e 2736 883e 86f0 a33d 6a4e 123e
00000020: 9520 413e b2f8 0b3e c0df 113e 992a f23f
00000030: 3948 c83e 0a51 5c3e d7a3 a03e 84c1 023e

layer1.0.conv1.weight f4 [16, 16, 3, 3]
0.07645748 -0.06811065 -0.11959568 0.0024569635 0.099776454 0.011269481 0.12079528 0.088385396
-0.012715385 0.11359414 -0.01216652 0.010348835 0.12815295 0.07401585 -0.03216497 0.059664536
-0.014804369 -0.0030682404 -0.2412811 -0.091094516 0.034503516 -0.09013376 -0.008110727 -0.06124219
-0.11522564 -0.020231726 0.050531548 -0.014900269 0.09448133 0.0685174 -0.00061714696 -0.014550868
0.033883765 0.08602762 0.01757572 -0.041563742 0.06005459 -0.039462723 0.098304965 0.10082692
0.14649159 0.16895491 0.15426756 0.13878925 0.07312289 0.12535104 -4.5604334e-05 0.111576684
0.013104744 -0.014241044 0.026988477 0.037352562 0.08082806 0.10447482 0.06598192 -0.041663647
0.03607184 0.007345424 -0.03435997 -0.08793101 0.083358906 0.057785943 -0.028941069 -0.046372965
0.012705736 0.033875924 0.029820736 -0.041410852 -0.026245538 -0.0715365 0.08160089 0.04621097
0.0014087285 0.022030512 -0.030217271 0.039610893 0.009347796 -0.0425905 0.016198304 0.00015700358
-0.038708832 -0.010458116 0.043707967 0.027202796 -0.015550228 0.063140735 -0.050107203 0.009833257
0.003511146 -0.05405416 -0.026622953 0.080498554 0.043029103 0.018648036 -0.088667154 -0.013960119
-0.017202407 -0.009535814 -0.040827807 0.044077218 -0.015164943 -0.06862262 -0.0009098316 0.0682439
-0.07997676 -0.03860133 -0.0965441 -0.030803273 0.08551441 0.0062734615 0.0055237683 -0.044287395
0.020734642 0.029074 0.022392645 0.04436367 0.051265594 0.023881078 0.08049474 -0.05638384
0.113620594 0.10475693 0.070331424 0.09831614 0.013726742 -0.051134713 0.00076682755 -0.021293193
0.07813761 -0.083688416 -0.051833656 0.022385696 -0.05512228 -0.008627533 0.045074128 -0.01283354
0.05657724 0.06244416 0.019469421 0.043577883 0.008638078 -0.037889015 0.075642824 0.09814661
0.053630676 0.076389246 -0.029532118 -0.007058783 0.07997693 0.07966876 0.049494606 0.021744698
-0.062158555 0.073369965 0.07512835 -0.02206127 0.06800096 0.08951749 -0.02333285 0.049863257
-0.07478949 -0.03206979 -0.032285932 -0.07658424 -0.008788865 -0.056633927 0.029138532 0.03585761
-0.03205377 0.08975597 0.07464547 -0.068884104 0.017856818 0.061446164 0.04411073 -0.028911492
-0.052542783 0.006320198 -0.100524634 -0.018740915 -0.043616604 -0.022348216 0.043211866 -0.072828725
-0.08166167 -0.033870745 -0.07723742 -0.039438006 0.0007755586 -0.049125943 -0.061512098 -0.155373
-0.014193365 0.06294421 -0.09329484 0.0022085852 0.033016477 0.06437351 0.07794265 -0.02805565
0.002806353 -0.050163433 -0.036491986 -0.025797743 -0.08329179 -0.08745393 -0.083018206 0.09106149
-0.008816782 0.09614796 0.036397904 -0.037659623 0.015174472 -0.049133994 0.03606728 -0.029430004
0.015531816 -0.084964894 -0.043341644 -0.030429816 -0.009337946 -0.024026832 0.07727709 0.11277295
0.0613745 0.059935063 0.052752536 0.11151933 -0.12400754 -0.07944679 -0.11265454 -0.030669622
-0.07336425 -0.02921394 0.11793354 0.1266401 -0.019611048 -0.03477376 -0.073231675 -0.11278426
-0.07457835 -0.023865456 -0.104858756 -0.030619785 -0.038093984 -0.08308983 0.011246284 -0.00093792274
-0.04099141 -0.0543576 -0.03233045 0.025725218 -0.05170946 -0.039213672 0.02559231 -0.09264077
00000000: bd95 9c3d 997d 8bbd 94ee f4bd 0205 213b
00000010: 9957 cc3d a1a3 383c 8463 f73d 6703 b53d
00000020: 3154 50bc 0ba4 e83d 1556 47bc 298e 293c
00000030: 873a 033e 9f95 973d 6abf 03bd cd62 743d
00000040: 068e 72bc 8814 49bb 6512 77be c38f babd
00000050: 8f53 0d3d 0c98 b8bd dbe2 04bc 17d9 7abd
00000060: 6cfb ebbd 01bd a5bc 2bfa 4e3d 4220 74bc
00000070: 6d7f c13d da52 8c3d 08c8 21ba c466 6ebc
00000080: b4c9 0a3d 402f b03d f5fa 8f3c be3e 2abd
00000090: cdfb 753d aaa3 21bd 1d54 c93d 587e ce3d
000000a0: e401 163e 8402 2d3e 51f8 1d3e c51e 0e3e
000000b0: 74c1 953d 065c 003e 4847 3fb8 5182 e43d
000000c0: 48b5 563c 4553 69bc f016 dd3c 00ff 183d
000000d0: 2f89 a53d e5f6 d53d 8721 873d 80a7 2abd
000000e0: 11c0 133d e2b1 f03b 0abd 0cbd 2c15 b4bd
000000f0: 13b8 aa3d f4b0 6c3d d215 edbc 94f1 3dbd
00000100: b82b 503c 7bc1 0a3d 9e4a f43c 6d9e 29bd
00000110: e200 d7bc ba81 92bd 5e1e a73d b747 3d3d
00000120: 16a5 b83a 5579 b43c 368a f7bc 083f 223d
00000130: 8027 193c 6073 2ebd 4eb2 843c 54a1 2439
00000140: 278d 1ebd 8558 2bbc 2007 333d 66d8 de3c
00000150: 62c6 7ebc ee4f 813d 363d 4dbd ab1b 213c
00000160: 411b 663b e567 5dbd 6118 dabc 6ddc a43d
00000170: 493f 303d c4c3 983c 2097 b5bd fcb8 64bc
00000180: 10ec 8cbc 1a3c 1cbc 0f3b 27bd 508a 343d
00000190: 6276 78bc 048a 8cbd c481 6eba 75c3 8b3d
000001a0: dbca a3bd 6e1c 1ebd eab8 c5bd 2557 fcbc
000001b0: 2e22 af3d 9c91 cd3b ba00 b53b b366 35bd
000001c0: b2db a93c 992c ee3c c870 b73c aeb6 353d
000001d0: dffb 513d 40a2 c33c 6dda a43d bef2 66bd
000001e0: eab1 e83d cd8a d63d ec09 903d f959 c93d
000001f0: 21e6 603c a272 51bd ed04 493a 106f aebc
00000200: 9c06 a03d d564 abbd 874f 54bd 3562 b73c
00000210: e6c7 61bd 7f5a 0dbc a69f 383d c543 52bc
00000220: 89bd 673d 73c5 7f3d 567e 9f3c b97e 323d
00000230: ba86 0d3c 8331 1bbd a0ea 9a3d 1701 c93d
00000240: d7ab 5b3d f771 9c3d 57ed f1bc 5d4d e7bb
00000250: f2ca a33d 6029 a33d dbba 4a3d f021 b23c
00000260: f899 7ebd fe42 963d e4dc 993d d6b9 b4bc
00000270: 1644 8b3d f254 b73d 8824 bfbc 6a3d 4c3d
00000280: 3b2b 99bd 9d5b 03bd 413e 04bd 33d8 9cbd
00000290: 2cff 0fbc faf8 67bd eeb3 ee3c 6edf 123d
000002a0: d04a 03bd fad1 b73d b9df 983d 1c13 8dbd
000002b0: 7648 923c f9ae 7b3d 74ad 343d cbd7 ecbc
000002c0: 1a37 57bd aa19 cf3b dcdf cdbd 8c86 99bc
000002d0: 53a7 32bd 9b13 b7bc edfe 303d 3a27 95bd
000002e0: 3c3e a7bd 0dbc 0abd a72e 9ebd bf89 21bd
000002f0: db4e 4b3a 4938 49bd 1cf4 7bbd 1a1a 1fbe
00000300: 4a8b 68bc e5e8 803d 5d11 bfbd e9bd 103b
00000310: 493c 073d 42d6 833d 65a0 9f3d f6d4 e5bc
00000320: caea 373b 2c78 4dbd 9f78 15bd ca55 d3bc
00000330: e394 aabd 0c1b b3bd 7305 aabd 727e ba3d
00000340: 4474 10bc 39e9 c43d f815 153d fa40 1abd
00000350: 599e 783c ba40 49bd 49bb 133d 3117 f1bc
00000360: 2879 7e3c 1302 aebd 0287 31bd f347 f9bc
00000370: 2ffe 18bc ebd3 c4bc 7343 9e3d 81f5 e63d
00000380: d463 7b3d 787e 753d 0b13 583d 3f64 e43d
00000390: aaf7 fdbd 00b5 a2bd 6cb7 e6bd dc3e fbbc
000003a0: ff3f 96bd 1352 efbc 2487 f13d f1ad 013e
000003b0: 59a7 a0bc ee6e 0ebd 7dfa 95bd 6ffb e6bd
000003c0: 89bc 98bd 7d81 c3bc 30c0 d6bd 58d6 fabc
000003d0: 7008 1cbd 002b aabd 5542 383c eede 75ba
000003e0: 9ce6 27bd 13a6 5ebd ef6c 04bd b1bd d23c
000003f0: 4ccd 53bd 849e 20bd f7a6 d13c 72ba bdbd

layer1.0.bn1.weight f4 [16]
0.9496325 1.0186601 1.0051492 0.9941271 0.9211896 1.0017807 1.0205295 1.0121657
0.9813534 1.0318223 1.0460172 0.96781325 0.9467315 0.9444615 1.0038346 0.9332077
00000000: 1e1b 733f 7463 823f bba8 803f 1d7f 7e3f
00000010: 15d3 6b3f 5a3a 803f b6a0 823f a58e 813f
00000020: fa39 7b3f c112 843f e4e3 853f 9cc2 773f
00000030: ff5c 723f 3bc8 713f a77d 803f b3e6 6e3f

layer1.0.bn1.bias f4 [16]
-0.04320122 0.046232942 -0.0027764733 -0.015111783 -0.06663056 -0.03065414 -0.042023666 -0.014734837
-0.031505655 0.0031662933 -0.039896484 -0.0002481061 0.010941206 -0.03165428 -0.030221682 -0.0069643175
00000000: c3f3 30bd c15e 3d3d 7ef5 35bb 6997 77bc
00000010: 9a75 88bd 641e fbbc 0221 2cbd 636a 71bc
00000020: 130c 01bd 9681 4f3b 7f6a 23bd 3d14 82b9
00000030: be42 333c eba7 01bd 7693 f7bc ee34 e4bb

layer1.0.bn1.running_mean f4 [16]
0.73414165 -0.41953754 0.68294144 0.1073922 0.16457112 0.2882422 -1.4349132 -0.38655457
-0.11339269 -1.1672984 -0.29522088 -0.8868452 0.17568052 -0.1344186 -0.06436565 0.4577562
00000000: b5f0 3b3f a0cd d6be 40d5 2e3f 71f0 db3d
00000010: 5585 283e 7b94 933e 3cab b7bf 7bea c5be
00000020: 6d3a e8bd 096a 95bf 3127 97be 4908 63bf
00000030: 98e5 333e 08a5 09be 23d2 83bd 055f ea3e

layer1.0.bn1.running_var f4 [16]
1.5194807 0.4567958 0.48895013 0.5042389 0.37072742 0.3474034 1.7002764 0.21348631
0.7073028 0.81776357 0.15209366 0.8934958 0.5236595 0.9876743 0.20822549 0.5571277
00000000: 587e c23f 24e1 e93e ac57 fa3e cd15 013f
00000010: fccf bd3e dcde b13e a8a2 d93f 289c 5a3e
00000020: cc11 353f f458 513f 71be 1b3e 24bc 643f
00000030: 8d0e 063f 39d8 7c3f 1039 553e ec9f 0e3f

layer1.0.conv2.weight f4 [16, 16, 3, 3]
0.05489255 -0.06690299 -0.0030637467 0.036985118 0.008533446 0.0050643156 -0.09112292 -0.08686332
-0.06866341 -0.08373879 -0.025954086 -0.026006073 -0.1562045 -0.021912472 0.043981124 -0.070544146
-0.033305064 0.07496899 0.049533144 -0.026384674 -0.035479482 0.07434165 -0.01379954 -0.026891999
-0.06706489 0.007904068 0.07122387 0.060097013 -0.046763424 -0.05914214 -0.037896402 0.07637456
0.035757776 0.09369375 0.089707 0.11893651 -0.0028703539 0.0032997925 0.015005061 -0.06815036
0.016810372 -0.056305256 0.00043892657 -0.05174671 -0.054411974 0.0076112296 -0.080567636 -0.029064788
-0.047006734 -0.023064068 -0.1399959 -0.009238695 -0.077173755 0.029193237 0.055440355 0.008116504
-0.003371445 0.061637495 0.008705152 0.0460744 -0.09234247 0.054644626 -0.00794469 -0.045429513
-0.07291384 -0.087255664 -0.03840014 -0.106420025 -0.02040953 -0.10902239 -0.08592763 -0.06892242
-0.037925977 -0.010743486 0.00393417 0.058639687 0.057932846 -0.056014802 0.013023739 0.03588004
-0.08069475 0.038157377 -0.025079275 0.030760506 0.028559 -0.08143708 -0.0791545 -0.011761657
-0.0630749 0.05442741 0.054576296 0.07841185 -0.020658609 0.05620782 0.053992365 0.04295453
0.13918504 0.06335238 0.097346954 -0.042346094 0.03324855 -0.040154736 0.03508238 0.048159745
-0.025773939 0.023157105 -0.07265931 -0.04911396 0.031124659 -0.0027149 0.011826512 0.05345919
0.0057345233 -0.10722772 0.07580574 -0.032389287 0.00095074537 0.014839885 0.050115306 -0.017210752
0.06158774 -0.02738889 -0.065178804 0.02675506 0.03455096 -0.01415935 0.058900673 0.024750147
0.03607652 0.05261606 0.06704555 -0.0469389 0.056066014 0.018099809 -0.023711791 -0.11295244
-0.12509356 -0.12238236 -0.06860375 -0.050050624 0.04115648 -0.044416416 0.049689084 -0.0772444
-0.018169297 -0.023345105 -0.06731825 0.004455596 0.029206805 -0.048923124 -0.09232052 -0.068336375
0.0717881 -0.086570784 -0.035710704 -0.034212288 -0.13266203 -0.093403704 -0.08955357 -0.06934048
-0.14748752 -0.06900721 -0.03479401 -0.073497176 -0.050956476 0.006219735 -0.111772254 0.07144989
-0.08529022 -0.041873306 0.024165295 -0.044112325 -0.014734553 0.06714276 -0.054692388 0.04952339
-0.052693546 0.036694173 -0.04085561 0.035822272 -0.07450165 -0.027909175 0.021117728 -0.05889295
-0.094142556 0.025787966 -0.060154334 -0.054201066 0.010632847 -0.070981435 -0.10949746 -0.07387152
-0.09421546 0.033270866 -0.10861683 -0.09059414 -0.008156857 -0.066078335 0.013421021 0.028238753
-0.016565135 0.034373175 -0.09641073 0.024857564 -0.037959106 -0.083659455 -0.0641846 0.031449277
0.042003836 0.083177164 -0.023561783 0.08759217 0.063571796 0.12511903 -0.013036387 -0.05626085
0.043234624 0.12170274 0.08029589 0.03601783 -0.0019193339 0.08029573 0.093247294 -0.026813028
-0.04156842 0.0813152 0.0625404 -0.09124103 0.011398142 0.03162427 -0.07880477 0.02816234
-0.05200723 0.04363664 -0.06928275 -0.0066736457 -0.020394841 -0.020926282 -0.000842293 0.08314317
-0.020343356 0.05951083 0.09733643 -0.0110690575 -0.014631698 -0.07187106 -0.074071065 -0.05165576
-0.12852998 0.0062914016 -0.035872042 0.028931662 -0.119457856 0.009832329 -0.05486392 0.016233051
00000000: 03d7 603d 6f04 89bd 24c9 48bb b57d 173d
00000010: decf 0b3c 8ff2 a53b a79e babd 65e5 b1bd
00000020: 679f 8cbd 3e7f abbd aa9d d4bc b00a d5bc
00000030: 13f4 1fbe c981 b3bc 8d25 343d 7379 90bd
00000040: e46a 08bd 5889 993d 44e3 4a3d ac24 d8bc
00000050: ef52 11bd 6f40 983d 7717 62bc 9c4c dcbc
00000060: 5159 89bd 1080 013c d2dd 913d 4928 763d
00000070: 018b 3fbd 073f 72bd 4239 1bbd 446a 9c3d
00000080: bf76 123d 82e2 bf3d 4eb8 b73d fc94 f33d
00000090: 8c1c 3cbb 5541 583b cad7 753c 6a92 8bbd
000000a0: e8b5 893c 57a0 66bd ba1f e639 5cf4 53bd
000000b0: 17df 5ebd 9f67 f93b a500 a5bd 4719 eebc
000000c0: 228a 40bd dbf0 bcbc 165b 0fbe e55d 17bc
000000d0: 460d 9ebd a826 ef3c 6d15 633d 16fb 043c
000000e0: 76f3 5cbb 9977 7c3d 0ea0 0e3c 83b8 3c3d
000000f0: 0d1e bdbd 0bd3 5f3d 722a 02bc 4c14 3abd
00000100: da53 95bd 19b3 b2bd 7749 1dbd bef2 d9bd
00000110: e331 a7bc 2147 dfbd d3fa afbd 3327 8dbd
00000120: 4558 1bbd 7205 30bc 36ea 803b 2b30 703d
00000130: fe4a 6d3d c76f 65bd 8561 553c f3f6 123d
00000140: 4a43 a5bd e94a 1c3d 0d73 cdbc 75fd fb3c
00000150: 90f4 e93c 7cc8 a6bd c11b a2bd f7b3 40bc
00000160: 6a2d 81bd 47ef 5e3d 658b 5f3d 6496 a03d
00000170: 3e3c a9bc 2c3a 663d 1927 5d3d 17f1 2f3d
00000180: 8686 0e3e e5be 813d d75d c73d 1973 2dbd
00000190: a22f 083d 4b79 24bd 8bb2 0f3d 2743 453d
000001a0: de23 d3bc f8b3 bd3c 68ce 94bd b82b 49bd
000001b0: 24f9 fe3c 77ec 31bb fdc3 413c 06f8 5a3d
000001c0: abe8 bb3b 359a dbbd 0a40 9b3d a1aa 04bd
000001d0: 713b 793a fd22 733c b545 4d3d 90fd 8cbc
000001e0: 6d43 7c3d aa5e e0bc 777c 85bd 6d2d db3c
000001f0: 4f85 0d3d 9efc 67bc d541 713d d2c0 ca3c
00000200: f9c4 133d f083 573d 2d4f 893d 0143 40bd
00000210: 7aa5 653d 0d46 943c 3b3f c2bc 9c53 e7bd
00000220: 8718 00be 9aa3 fabd 1f80 8cbd e201 4dbd
00000230: b293 283d fded 35bd c886 4b3d 5032 9ebd
00000240: c7d7 94bc 3c3e bfbc 27de 89bd 4000 923b
00000250: 1c43 ef3c 9d63 48bd 8a12 bdbd f1f3 8bbd
00000260: a405 933d 064c b1bd 6345 12bd 2f22 0cbd
00000270: 8ed8 07be 714a bfbd dd67 b7bd 6202 8ebd
00000280: f806 17be a753 8dbd 2a84 0ebd b085 96bd
00000290: bdb7 50bd ebce cb3b dae8 e4bd 5254 923d
000002a0: a4ac aebd 5883 2bbd 4cf6 c53c 20af 34bd
000002b0: 3269 71bc 2582 893d 2005 60bd 0ad9 4a3d
000002c0: 30d5 57bd a14c 163d 3658 27bd 60ba 123d
000002d0: 5294 98bd c8a1 e4bc 16ff ac3c bc39 71bd
000002e0: d0cd c0bd 4941 d33c 6464 76bd f001 5ebd
000002f0: 6535 2e3c b75e 91bd 3440 e0bd f449 97bd
00000300: 09f4 c0bd 0847 083d 8072 debd 6c89 b9bd
00000310: 57a4 05bc 1454 87bd d8e3 5b3c f554 e73c
00000320: 9bb3 87bc e3ca 0c3d fd72 c5bd 17a2 cb3c
00000330: 027b 1bbd a655 abbd 3773 83bd f5d0 003d
00000340: 370c 2c3d ca58 aa3d a404 c1bc 8663 b33d
00000350: ee31 823d 341f 003e 9296 55bc c771 66bd
00000360: ca16 313d 493f f93d 2c72 a43d 6f87 133d
00000370: 2992 fbba 1672 a43d 70f8 be3d ffa6 dbbc
00000380: a643 2abd 9588 a63d 2e15 803d 94dc babd
00000390: 46bf 3a3c 7388 013d 6564 a1bd b5b4 e63c
000003a0: 8905 55bd 55bc 323d 1de4 8dbd 99ae dabb
000003b0: 1513 a7bc 986d abbc 54cd 5cba f746 aa3d
000003c0: 1ca7 a6bc a1c1 733d 5258 c73d fe5a 35bc
000003d0: cab9 6fbc 2231 93bd 92b2 97bd fd94 53bd
000003e0: 5d9d 03be 1a28 ce3b 90ee 12bd 1802 ed3c
000003f0: 52a6 f4bd c717 213c fdb8 60bd 2dfb 843c

layer1.0.bn2.weight f4 [16]
0.98544407 0.99670744 0.9714437 0.92315745 0.9933665 1.002726 1.0035503 0.99622697
0.9483639 0.9819622 0.93032 0.9305901 0.9693389 0.9850147 1.0389035 0.99451935
00000000: 1046 7c3f 3828 7f3f 89b0 783f 0c54 6c3f
00000010: 444d 7e3f 5359 803f 5674 803f bb08 7f3f
00000020: fac7 723f e061 7b3f 7429 6e3f 273b 6e3f
00000030: 9826 783f ec29 7c3f cafa 843f d298 7e3f

layer1.0.bn2.bias f4 [16]
0.026852198 -0.07907121 -0.03312063 -0.035846207 -0.026850307 -0.024063496 -0.023400368 0.020515949
-0.06410073 0.012200171 -0.0006753964 -0.022865599 0.02966045 -0.030396242 0.04473726 -0.07709439
00000000: 24f9 db3c 16f0 a1bd 7fa9 07bd 79d3 12bd
00000010: 2df5 dbbc cf20 c5bc 21b2 bfbc 1011 a83c
00000020: 3e47 83bd 3ae3 473c 160d 31ba a350 bbbc
00000030: 79fa f23c 8a01 f9bc 6b3e 373d aae3 9dbd

layer1.0.bn2.running_mean f4 [16]
-0.38046128 -0.6260311 0.6566806 0.15849015 -0.5351577 -0.2203294 0.24896841 -0.12513131
-0.603119 -0.5218128 -0.7751256 0.33424082 -1.0467007 -0.07964022 0.34781146 -0.1395885
00000000: d2cb c2be 9343 20bf 381c 283f 3e4b 223e
00000010: 1800 09bf 089e 61be 93f1 7e3e 6c22 00be
00000020: 0266 1abf 8695 05bf a26e 46bf 9d21 ab3e
00000030: 4afa 85bf 691a a3bd 5814 b23e 4af0 0ebe

layer1.0.bn2.running_var f4 [16]
0.61174816 0.5967193 0.8431511 0.9874211 0.25767004 0.6011829 0.9685319 0.5176643
0.7985663 0.46371558 0.6001925 0.70159477 0.7313423 0.51117307 0.22471394 0.30110902
00000000: 879b 1c3f 99c2 183f c0d8 573f a1c7 7c3f
00000010: 54ed 833e 1fe7 193f b5f1 773f a685 043f
00000020: d76e 4c3f 216c ed3e 37a6 193f b79b 333f
00000030: 4039 3b3f 3ddc 023f 691b 663e f62a 9a3e

layer1.1.conv1.weight f4 [16, 16, 3, 3]
-0.048402637 -0.03660728 -0.03840963 -0.017583564 0.036771685 0.054754417 0.04146875 0.05290193
0.04395243 0.063049935 -0.07826885 0.046815675 -0.0099140275 -0.054657377 -0.007584693 0.09225132
-0.028636266 -0.08623638 -0.05081891 -0.017464025 0.085543 0.08910563 -0.026188476 -0.014330879
0.037268836 0.0100574605 -0.055099946 0.018810814 -0.0051754788 0.00045295147 -0.075719684 -0.011038723
0.040994648 0.044313524 -0.031738505 0.07467571 -0.025093716 -0.07524467 0.03355454 0.040186122
-0.023861483 0.016340708 -0.021279903 -0.06548089 0.078137 -0.05736078 0.009599315 0.026050564
-0.081486925 0.005046527 -0.050739624 -0.044791978 -0.042862896 -0.04354722 -0.027971555 0.021815976
0.10891447 -0.072566584 -0.03738013 0.11573665 0.018248932 -0.069804326 0.029729206 0.0529556
0.07761838 -0.01689421 -0.032701816 -0.013587063 0.10701581 -0.006446866 0.086939365 0.032560624
0.0055150692 -0.033250425 -0.058713857 0.022948569 0.06829648 0.0042337454 0.017523583 0.019249815
0.0068266373 0.0014442019 -0.006316422 -0.040791396 0.088671535 0.010367311 -0.0105590755 0.13827159
-0.016212126 0.04092199 0.032786496 -0.07653503 0.029648058 -0.1267239 0.015461602 -0.031013811
-0.10219358 -0.01575867 0.021476315 -0.09195075 -0.023163654 0.029126087 0.022998659 0.07330022
0.06227991 -0.10410102 0.03142117 0.043266706 -0.052384567 -0.06370894 0.07976955 0.08083137
-0.035013698 -0.00031344162 0.020172497 -0.0059971935 0.0597021 0.0025491228 -0.0719671 0.049696
0.060503982 -0.0657222 0.01533827 0.06751872 -0.04244661 -0.058142662 0.010927158 0.108662486
0.011993538 0.12617947 0.10183299 0.034851983 -0.06002251 0.019193234 0.032950632 0.012835444
0.107011184 0.044421658 0.0110667255 0.10018477 0.087951146 -0.046080712 0.009054942 -0.039866764
0.06674508 -0.0024584369 0.031096682 -0.047533914 0.041018944 0.009677933 -0.008191023 -0.07751327
0.030626211 0.03205865 0.013787611 0.088979274 0.062587894 0.028423404 0.15726618 0.10161913
0.13536882 0.16945252 0.08382096 0.027861787 -0.07376343 0.07076683 0.07419394 0.04288351
-0.06115714 0.016307876 0.042096477 -0.085428886 -0.07031207 -0.029969612 0.022684611 -0.015361404
-0.060607392 -0.06185969 -0.10561139 0.039261058 0.095098294 0.024633996 -0.054234844 -0.0052067623
0.07978195 0.025262704 0.09284178 0.0007809355 0.04500199 0.062502526 0.05094229 0.0493336
0.026073657 -0.03433317 -0.059301395 0.06396261 0.053866275 0.061122347 -0.01626327 0.023481881
-0.00048792473 -0.08144158 -0.031560592 0.07012745 -0.14604771 -0.088870525 0.00038104065 -0.055531014
0.055488296 0.019378744 0.034747772 0.034893744 0.072543934 0.028608283 -0.08148821 -0.01594913
-0.03687057 -0.033782046 -0.08838756 0.0687363 0.06693296 0.0369245 0.05651018 -0.078954384
-0.04239546 0.05254871 0.020734413 0.0434168 0.019105809 0.0028338516 0.082145885 -0.052298903
-0.03726961 -0.012780106 0.018733868 0.03184126 -0.037953053 0.05671079 -0.00067615055 0.0067182626
0.1086179 0.053798657 0.03770404 -0.025779817 -0.038599722 0.0423255 -0.030082155 -0.050074097
-0.019679993 0.09099774 0.034439083 0.011044868 0.03258282 -0.09883876 -0.060992595 -0.031311706
00000000: d841 46bd 84f1 15bd 6b53 1dbd 680b 90bc
00000010: e89d 163d 2b46 603d 23db 293d b2af 583d
00000020: 7707 343d 5320 813d 6b4b a0bd cbc1 3f3d
00000030: 726e 22bc 6ae0 5fbd 0489 f8bb 43ee bc3d
00000040: 9a96 eabc b39c b0bd 7d27 50bd b710 8fbc
00000050: 2b31 af3d 037d b63d 3789 d6bc 10cc 6abc
00000060: 35a7 183d 0cc8 243c 7bb0 61bd 2319 9a3c
00000070: 1097 a9bb 1e7a ed39 ec12 9bbd c3db 34bc
00000080: 01ea 273d 1982 353d 3c00 02bd 94ef 983d
00000090: 5691 cdbc e119 9abd 7c70 093d 349a 243d
000000a0: 2879 c3bc f3dc 853c 3153 aebc d81a 86bd
000000b0: 4b06 a03d 23f3 6abd 7246 1d3c fe67 d53c
000000c0: 9ee2 a6bd 565d a53b 5ad4 4fbd cb77 37bd
000000d0: 0191 2fbd 925e 32bd 9a24 e5bc 6bb7 b23c
000000e0: 8d0e df3d ca9d 94bd e81b 19bd 5607 ed3d
000000f0: c97e 953c 92f5 8ebd aa8a f33c f9e7 583d
00000100: 63f6 9e3d ba65 8abc 57f2 05bd 469c 5ebc
00000110: 1b2b db3d 3b40 d3bb 440d b23d 4a5e 053d
00000120: c1b7 b43b 9931 08bd f17d 70bd a3fe bb3c
00000130: 06df 8b3d 3bbb 8a3b 9e8d 8f3c cab1 9d3c
00000140: fcb1 df3b 604b bd3a fdf9 cebb e114 27bd
00000150: 6c99 b53d a7db 293c f9ff 2cbc 1197 0d3e
00000160: 4bcf 84bc d19d 273d 224b 063d 66be 9cbd
00000170: 7ce0 f23c e9c3 01be a952 7d3c ad10 febc
00000180: de4a d1bd 5418 81bc 19ef af3c ad50 bcbd
00000190: b4c1 bdbc d599 ee3c af67 bc3c 6d1e 963d
000001a0: 3819 7f3d ea32 d5bd 7cb3 003d 6e38 313d
000001b0: 3391 56bd d579 82bd 385e a33d eb8a a53d
000001c0: 866a 0fbd 6c55 a4b9 cb40 a53c 1b84 c4bb
000001d0: 308a 743d 2f0f 273b 7d63 93bd 088e 4b3d
000001e0: 06d3 773d 5c99 86bd 5e4d 7b3c 4147 8a3d
000001f0: 7fdc 2dbd 0027 6ebd d307 333c 708a de3d
00000200: 8b80 443c 3135 013e d18d d03d f4c0 0e3d
00000210: 2ada 75bd 213b 9d3c 3ef7 063d c14b 523c
00000220: ae28 db3d 7cf3 353d 3651 353c ac2d cd3d
00000230: bb1f b43d 21bf 3cbd 2e5b 143c 554b 23bd
00000240: a5b1 883d ba1d 21bb 78be fe3c ecb2 42bd
00000250: 7b03 283d 3190 1e3c a433 06bc 47bf 9ebd
00000260: d2e3 fa3c ee4f 033d 6fe5 613c c43a b63d
00000270: 152e 803d 33d8 e83c 630a 213e b11d d03d
00000280: 209e 0a3e f684 2d3e 53aa ab3d 673e e43c
00000290: 4811 97bd 33ee 903d fef2 973d 9fa6 2f3d
000002a0: e97f 7abd 1898 853c 5b6d 2c3d 57f5 aebd
000002b0: c6ff 8fbd d582 f5bc 14d5 b93c 66ae 7bbc
000002c0: 753f 78bd 9660 7dbd c94a d8bd 34d0 203d
000002d0: e5c2 c23d 3ccd c93c 5b25 5ebd 7d9d aabb
000002e0: b864 a33d bbf3 ce3c d523 be3d b2b7 4c3a
000002f0: 0254 383d 5301 803d dda8 503d 0712 4a3d
00000300: 6c98 d53c f0a0 0cbd 05e6 72bd d4fe 823d
00000310: e2a2 5c3d 6d5b 7a3d 8d3a 85bc 135d c03c
00000320: 26d0 ffb9 d8ca a6bd ae45 01bd fb9e 8f3d
00000330: 888d 15be c001 b6bd 69c6 c739 7d74 63bd
00000340: b247 633d 2cc0 9e3c ae53 0e3d beec 0e3d
00000350: ea91 943d eb5b ea3c 4ae3 a6bd c0a7 82bc
00000360: 9805 17bd 0b5f 0abd 8904 b5bd 9ec5 8c3d
00000370: 2614 893d 253e 173d 3877 673d d6b2 a1bd
00000380: dda6 2dbd 513d 573d 37db a93c d1d5 313d
00000390: c983 9c3c 24b8 393b 1a3c a83d 6037 56bd
000003a0: 05a8 18bd a663 51bc c577 993c fb6b 023d
000003b0: a974 1bbd 9349 683d b23f 31ba df24 dc3b
000003c0: 1073 de3d fb5b 5c3d 8d6f 1a3d 3230 d3bc
000003d0: be1a 1ebd 815d 2d3d da6e f6bc 7f1a 4dbd
000003e0: f037 a1bc 065d ba3d ff0f 0d3d 89f5 343c
000003f0: 9075 053d fa6b cabd 5fd3 79bd b440 00bd

layer1.1.bn1.weight f4 [16]
0.965459 0.991217 1.0722147 0.9252488 0.90670735 1.0093539 1.0316601 0.923929
0.9488201 0.972306 0.92404 1.0060844 1.0129045 0.9511531 0.9371723 0.9691055
00000000: 5228 773f 66c0 7d3f 553e 893f 1bdd 6c3f
00000010: f91d 683f 8232 813f 700d 843f 9c86 6c3f
00000020: e0e5 723f 0ce9 783f e38d 6c3f 60c7 803f
00000030: dba6 813f c57e 733f 86ea 6f3f 4c17 783f

layer1.1.bn1.bias f4 [16]
-0.01633017 0.022644952 -0.06632846 -0.09878553 -0.05390635 -0.020775726 0.026694968 -0.029379481
-0.014482164 -0.015467983 -0.047263112 -9.460829e-05 -0.11152484 -0.005790319 -0.05925304 -0.02313806
00000000: d9c6 85bc e881 b93c 37d7 87bd 1150 cabd
00000010: e8cc 5cbd db31 aabc 68af da3c 3dad f0bc
00000020: 9946 6dbc 6c6d 7dbc f796 41bd 7068 c6b8
00000030: 2367 e4bd b7bc bdbb 51b3 72bd 078c bdbc

layer1.1.bn1.running_mean f4 [16]
0.57435626 0.61780226 -0.7367033 -1.410913 -1.1530523 0.6709632 0.011472792 -1.3912524
1.6235257 0.80323726 -0.49515122 0.91420096 -0.23603836 1.054221 -0.47652504 -1.5820246
00000000: 0309 133f 4a28 1e3f 9698 3cbf cc98 b4bf
00000010: 3897 93bf 3fc4 2b3f 61f8 3b3c 8f14 b2bf
00000020: b1cf cf3f f5a0 4d3f 7684 fdbe 1309 6a3f
00000030: 0ab4 71be b7f0 863f 17fb f3be c87f cabf

layer1.1.bn1.running_var f4 [16]
1.0722859 0.8492641 0.8572748 1.0900185 2.3429518 0.8538809 0.6189101 2.6318388
1.5138489 2.8647895 4.330973 1.6449776 0.6351072 2.370403 1.7383409 3.0734143
00000000: aa40 893f 5f69 593f 5c76 5b3f ba85 8b3f
00000010: ecf2 1540 f097 5a3f e470 1e3f 0c70 2840
00000020: cdc5 c13f b658 3740 5597 8a40 a08e d23f
00000030: 6396 223f afb4 1740 f481 de3f d2b2 4440

layer1.1.conv2.weight f4 [16, 16, 3, 3]
0.07151323 -0.038559552 -0.033570256 -0.003164765 0.099563226 -0.09397524 0.08418015 -0.012905023
0.0036875084 0.01954515 0.020364253 -0.059304688 0.032582138 0.077535205 0.042128548 0.04696739
0.021363249 0.034234174 0.05889514 0.075673476 0.08679907 0.010755183 0.12584966 0.08092427
0.07913271 0.116078794 0.08058962 0.08025302 -0.006919684 0.046579715 0.078104 0.018612968
0.0318943 -0.0697946 0.068921305 0.045537654 -0.0498124 -0.016577488 0.08484122 -0.027240658
-0.04492013 -0.009992035 0.08911884 -0.032480206 -0.023312602 0.087171145 0.07103481 -0.016322868
0.090243496 0.031697117 0.02304552 -0.0494032 -0.0564245 -0.014298296 0.02882084 0.107086
0.0069752084 0.06828036 0.010554408 0.029183675 0.006751029 -0.03499937 0.03836839 0.027364252
-0.013011698 0.038278755 -0.05490254 0.019581174 -0.07021501 -0.06842341 0.033622283 -0.08433501
-0.057086673 0.027964916 0.043228243 -0.010631514 -0.035774555 -0.060230054 -0.025168201 -0.062565446
-0.04055775 0.06556699 0.0009610098 -0.045919415 0.109166905 -0.013315025 0.014298533 0.05127264
0.07709952 0.022474168 -0.038498476 0.025429891 0.06609087 0.057415083 -0.04616431 -0.04115802
0.035540562 0.023065545 0.0033919157 0.09398206 -0.0176483 -0.044442616 0.10003061 0.07335683
0.066801086 -0.03596233 0.034295913 -0.007912706 0.06578424 0.07457453 -0.06977699 -0.0031094823
-0.04890213 0.058281172 -0.032612205 -0.011726876 -0.1012232 -0.001740999 -0.039879035 -0.034976315
0.05794865 0.06102948 -0.028178481 -0.01547202 0.023965789 -0.025116239 -0.07964345 0.018068243
0.0071379123 0.035708923 0.0077437563 -0.07717516 -0.068335086 0.061588995 -0.02970241 -0.028726634
-0.04566891 0.0105077205 0.06977876 0.06409619 0.016224766 -0.04631161 -0.021339625 0.056158908
-0.08867736 0.010058108 -0.068708986 -0.038615502 -0.05116481 0.018698515 0.078433394 0.033273444
0.06625356 -0.04946295 -0.03913672 -0.06326837 -0.047870763 0.04827348 -0.06151393 -0.0033296994
-0.00018074345 0.054870892 -0.06850056 -0.0014804712 -0.009758099 0.00032011548 -0.0891743 -0.0067968834
0.027881598 -0.019896243 0.05761444 -0.052060172 0.0031774673 0.017005427 -0.012974964 0.040013026
-0.05992707 0.060599703 -0.061250046 0.053391997 0.05762245 -0.07853437 0.054767717 -0.031481374
-0.048373114 -0.07063459 0.015854225 -0.028151745 0.018102387 -0.010349132 0.05179733 0.06344083
0.066582985 0.03376754 0.100421324 0.031318296 0.06977448 -0.027819209 -0.052672938 0.047072362
0.035559002 0.042532418 -0.026960101 0.083633885 0.069400966 0.04999217 0.08513161 -0.006678526
0.05173934 0.045733023 0.07548667 -0.049516115 -0.0039598085 0.030666636 -0.079096384 -0.04310111
-0.086566254 0.024373295 -0.08998302 0.07312825 -0.04695519 -0.054433316 -0.040774763 0.034109604
0.008325239 -0.02791362 -0.06721997 -0.04021923 0.01955744 0.007157906 0.021314027 -0.029280355
0.11612304 0.054104894 0.048009906 0.010545813 0.10313721 0.0023380092 0.03241513 -0.07455707
0.061129957 -0.073798776 0.05240752 -0.1058289 -0.1181756 -0.085272856 -0.05389504 -0.02231325
-0.04622616 0.062244676 -0.0036520106 0.06418078 -0.0138824275 0.048639107 0.0162259 0.0830493
00000000: 8775 923d 9ff0 1dbd f780 09bd f267 4fbb
00000010: cee7 cb3d 1776 c0bd a466 ac3d 976f 53bc
00000020: 20aa 713b 271d a03c efd2 a63c 79e9 72bd
00000030: d974 053d c7ca 9e3d fc8e 2c3d e160 403d
00000040: fb01 af3c 2239 0c3d 083c 713d b2fa 9a3d
00000050: b6c3 b13d 8236 303c bcde 003e a0bb a53d
00000060: 5510 a23d b8ba ed3d 2c0c a53d b25b a43d
00000070: 84be e2bb 5fca 3e3d fdf4 9f3d 397a 983c
00000080: 99a3 023d 79f0 8ebd 9d26 8d3d b185 3a3d
00000090: 1608 4cbd 83cd 87bc 3cc1 ad3d cd27 dfbc
000000a0: 2cfe 37bd a2b5 23bc f083 b63d f709 05bd
000000b0: 12fa bebc c986 b23d b37a 913d 89b7 85bc
000000c0: 95d1 b83d d6d4 013d f5c9 bc3c 035b 4abd
000000d0: 601d 67bd 6643 6abc af19 ec3c e84f db3d
000000e0: 4a90 e43b 93d6 8b3d 65ec 2c3c 9a12 ef3c
000000f0: bc37 dd3b 805b 0fbd 2c28 1d3d ff2a e03c
00000100: 042f 55bc 2fca 1c3d 7ce1 60bd b368 a03c
00000110: e3cc 8fbd 9321 8cbd 85b7 093d d5b7 acbd
00000120: b7d3 69bd ae16 e53c 1910 313d cd2f 2ebc
00000130: 5788 12bd cab3 76bd 8b2d cebc 5022 80bd
00000140: e21f 26bd fc47 863d 47ec 7b3a ff15 3cbd
00000150: e692 df3d 4327 5abc 6544 6a3c 4203 523d
00000160: 5ae6 9d3d bf1b b83c 94b0 1dbd 5952 d03c
00000170: a65a 873d 142c 6b3d ca16 3dbd 5095 28bd
00000180: fb92 113d f4f3 bc3c e74a 5e3b ab79 c03d
00000190: 2b93 90bc 7609 36bd d9dc cc3d 1b3c 963d
000001a0: 02cf 883d 3c4d 13bd df79 0c3d 4ba4 01bc
000001b0: e3b9 863d 88ba 983d 3de7 8ebd 75c8 4bbb
000001c0: 9a4d 48bd 3db8 6e3d 6094 05bd 1522 40bc
000001d0: 1c4e cfbd 3c32 e4ba 3358 23bd 5343 0fbd
000001e0: 905b 6d3d 0cfa 793d 8fd6 e6bc 5b7e 7dbc
000001f0: e753 c43c 92c0 cdbc 1b1c a3bd da03 943c
00000200: 26e5 e93b 8543 123d 56bf fd3b 030e 9ebd
00000210: 44f3 8bbd be44 7c3d 7852 f3bc 1e54 ebbc
00000220: 530f 3bbd 9328 2c3c 2be8 8e3d dd44 833d
00000230: cde9 843c 3eb1 3dbd 70d0 aebc e206 663d
00000240: 7a9c b5bd c3ca 243c 4cb7 8cbd 4a2b 1ebd
00000250: 3192 51bd a12d 993c b0a1 a03d bc49 083d
00000260: f2af 873d aa99 4abd d34d 20bd d992 81bd
00000270: 2214 44bd 6aba 453d 08f6 7bbd 1637 5abb
00000280: f385 3db9 4dc0 603d 064a 8cbd 5f0c c2ba
00000290: 6fe0 1fbc 2cd5 a739 04a1 b6bd 64b8 debb
000002a0: f367 e43c 72fd a2bc 1efd 6b3d 0c3d 55bd
000002b0: 0e3d 503b f74e 8b3c f294 54bc b3e4 233d
000002c0: 1676 75bd 6537 783d 54e1 7abd 91b1 5a3d
000002d0: 8505 6c3d a1d6 a0bd 1d54 603d 9df2 00bd
000002e0: e322 46bd dea8 90bd b8e0 813c 7d9e e6bc
000002f0: 754b 943c 688f 29bc 7029 543d 44ed 813d
00000300: a95c 883d d54f 0a3d b2a9 cd3d 9d47 003d
00000310: ece5 8e3d 1ce5 e3bc 94bf 57bd f3ce 403d
00000320: 51a6 113d 7936 2e3d 6edb dcbc 3e48 ab3d
00000330: 1822 8e3d 97c4 4c3d 7b59 ae3d 89d7 dabb
00000340: a1ec 533d 8d52 3b3d c198 9a3d 69d1 4abd
00000350: 48c1 81bb 9938 fb3c 49fd a1bd ca8a 30bd
00000360: a649 b1bd 81aa c73c 0549 b8bd 44c4 953d
00000370: 1654 40bd 78f5 5ebd 7003 27bd 83b6 0b3d
00000380: 9566 083c 1bab e4bc a0aa 89bd ebbc 24bd
00000390: ed36 a03c de8c ea3b c19a ae3c 5bdd efbc
000003a0: ebd1 ed3d 189d 5d3d 09a6 443d 58c8 2c3c
000003b0: 9a39 d33d 4939 193b bac5 043d 61b1 98bd
000003c0: 6863 7a3d d023 97bd 45a9 563d d3bc d8bd
000003d0: 0d06 f2bd 89a3 aebd 0cc1 5cbd 47ca b6bc
000003e0: a457 3dbd 46f4 7e3d 9256 6fbb 3671 833d
000003f0: 1f73 63bc cd39 473d 2eec 843c c015 aa3d

layer1.1.bn2.weight f4 [16]
0.9806799 1.0108575 0.9823627 0.9105683 0.97277653 0.96591204 1.0205332 1.0810481
0.9977589 0.9692799 0.9672749 0.9823449 0.9709269 1.0753486 0.9718825 1.0610182
00000000: d70d 7b3f c763 813f 1f7c 7b3f 011b 693f
00000010: e207 793f 0346 773f d5a0 823f c95f 8a3f
00000020: 216d 7f3f ba22 783f 549f 773f f57a 7b3f
00000030: aa8e 783f 06a5 893f 4bcd 783f 72cf 873f

layer1.1.bn2.bias f4 [16]
-0.040028498 -0.038564585 -0.03606303 -0.032749083 -0.029385163 0.0130630415 -0.051056076 -0.021736994
-0.084271155 -0.0028633534 -0.009081729 0.049686287 0.06274841 0.022042286 0.047874253 0.0069265403
00000000: ecf4 23bd e6f5 1dbd d4b6 13bd e723 06bd
00000010: 27b9 f0bc 5e06 563c 2d20 51bd c811 b2bc
00000020: 5b96 acbd 19a7 3bbb 88cb 14bc d983 4b3d
00000030: 3d82 803d 0692 b43c cb17 443d 08f8 e23b

layer1.1.bn2.running_mean f4 [16]
0.58576185 0.2218785 0.22735043 0.4865344 0.2643521 0.09022307 0.22911099 0.17151722
0.2614346 0.48339793 -0.9279834 -0.5518367 -0.879219 -0.011316013 -0.15475723 -0.24665126
00000000: 7df4 153f 1e34 633e 8dce 683e 091b f93e
00000010: 2959 873e dfc6 b83d 129c 6a3e 36a2 2f3e
00000020: c2da 853e ef7f f73e 5290 6dbf 2c45 0dbf
00000030: 7f14 61bf cc66 39bc ae78 1ebe 2692 7cbe

layer1.1.bn2.running_var f4 [16]
0.43225697 0.3082464 0.98060244 0.6485221 0.6354902 0.36542922 0.3714989 0.39833346
0.7790225 0.6041715 1.7847224 1.6119016 1.1698586 0.5405163 1.1621426 0.39241692
00000000: c950 dd3e 79d2 9d3e c308 7b3f 8b05 263f
00000010: 7caf 223f 8a19 bb3e 1b35 be3e 5df2 cb3e
00000020: 056e 473f fcaa 1a3f c971 e43f cb52 ce3f
00000030: edbd 953f 475f 0a3f 17c1 943f dfea c83e

layer2.0.conv1.weight f4 [32, 16, 3, 3]
0.055441458 0.03155484 -0.027751096 -0.08800319 -0.047127504 -0.06504181 0.06093031 0.082021765
-0.006162259 -0.014987943 0.024639629 0.075017445 0.08508709 0.055781037 0.03480676 0.06676485
0.036744468 -0.050576854 -0.011890289 -0.0015377575 0.071956195 0.10053245 -0.034638084 0.042137366
0.02366707 -0.01940108 -0.002418754 -0.020220315 0.035621967 0.008496381 -0.08962048 0.039339077
-0.03406487 0.0351588 -0.020828262 -0.006751973 0.027531985 -0.046866488 -0.05701576 -0.056733772
-0.07883771 -0.0015571339 0.057066508 0.008050301 0.019643925 0.076889314 0.070347905 0.01609665
0.08222624 0.10667783 0.025220416 0.02603244 0.053535417 0.0017972043 -0.03209489 0.023804387
0.050187714 -0.063447855 0.012403801 -0.046440426 -0.057997186 0.030582504 0.008627957 0.006977421
-0.07434262 -0.02660725 -0.037320092 -0.07476008 -0.049083896 -0.06382408 -0.044957895 0.06497303
-0.041733917 -0.033601854 -0.03217219 0.013020993 0.07054623 -0.049150024 0.099598 0.049369805
-0.009316701 -0.09820872 0.011469687 -0.05795427 0.02969317 -0.035742436 -0.04071215 0.039647985
-0.04871419 0.044312604 0.050746534 0.04753378 0.077831395 0.082527794 0.08813949 0.10520278
0.05935588 0.0030904317 -1.8377497e-05 0.022698624 0.123877585 0.123100914 0.1245746 -0.004008738
0.13413714 -0.041557796 0.08157966 0.10155552 -0.004851284 0.0591115 0.04789505 0.0012571003
0.043698266 -0.024878094 0.010841934 -0.029594332 -0.11260764 -0.05748061 -0.009621267 0.024932967
-0.0563422 0.0040334114 0.04478291 -0.051364567 0.06918385 0.086851686 0.043707762 0.045779623
0.024717893 -0.027294949 -0.0621638 -0.038835123 0.03532843 0.022469379 0.037676755 0.020478124
0.013717655 0.032885242 -0.05768434 -0.009555464 -0.055858836 0.040933616 0.07018887 0.07644393
-0.08089436 -0.017895676 0.012924119 0.069709696 -0.023478325 0.0051529426 0.06492024 0.07406789
0.0316493 -0.064020894 -0.06838548 -0.055067837 -0.07271584 -0.047443725 -6.6304638e-06 -0.060378723
-0.01663438 -0.08034878 0.022599673 0.0632699 -0.08084124 0.028062377 0.07089569 0.068456545
0.02552825 -0.07354516 0.00057710893 -0.08701087 -0.09591371 0.018368669 -0.07346014 -0.008332412
-0.06428534 -0.04263977 0.024041058 -0.06487195 0.065545805 0.06157122 -0.06937713 0.061635565
-0.009559181 -0.08809083 -0.060201988 -0.055785153 -0.0852123 0.021016594 -0.009730712 0.045625575
-0.03328474 -0.00016762326 0.01282115 -0.10120172 -0.085448325 -0.0138121955 0.010444151 0.041842643
-0.06517299 -0.016591696 -0.048050165 0.0012334723 0.07819636 0.047361214 0.063989624 -0.017084561
0.015630174 -0.043472867 -0.054810666 -0.06098848 0.03833428 0.099351756 0.079053715 0.1023541
-0.047487445 -0.08005778 -0.09090224 -0.023990985 0.06360041 -0.0434764 0.07510258 0.07687238
-0.01337739 -0.06782909 -0.1006719 0.005258431 -0.0033636747 -0.028757438 -0.07321923 0.026836239
-0.02593385 -0.10603368 0.10476155 -0.008987332 0.047008373 0.029955287 0.008121617 0.07042392
0.03421449 -0.013971342 0.004707819 0.086131394 0.0861999 0.07156545 0.061328597 -0.043434378
-0.05724539 -0.07734919 -0.083316065 -0.084445186 0.050906822 -0.0068515204 0.010819306 0.076876275
00000000: 9516 633d a63f 013d 4456 e3bc 043b b4bd
00000010: c508 41bd a434 85bd 1092 793d 07fb a73d
00000020: c6ec c9bb fd8f 75bc 0cd9 c93c bfa2 993d
00000030: 2442 ae3d a87a 643d 8891 0e3d 02bc 883d
00000040: 5e81 163d ad29 4fbd 7dcf 42bc 948e c9ba
00000050: c55d 933d f5e3 cd3d aae0 0dbd 3b98 2c3d
00000060: 71e1 c13c 04ef 9ebc f583 1ebb 13a5 a5bc
00000070: 57e8 113d 6834 0b3c f18a b7bd 0322 213d
00000080: 9b87 0bbd ad02 103d 08a0 aabc a83f ddbb
00000090: c28a e13c 13f7 3fbd 5c89 69bd ac61 68bd
000000a0: aa75 a1bd be18 ccba 92be 693d 69e5 033c
000000b0: 4cec a03c 2578 9d3d 9012 903d 1fdd 833c
000000c0: 3b66 a83d e879 da3d 0c9b ce3c fc41 d53c
000000d0: f447 5b3d 2b90 eb3a ee75 03bd 6b01 c33c
000000e0: a291 4d3d f3f0 81bd 5039 4b3c 5138 3ebd
000000f0: 758e 6dbd 2988 fa3c 465c 0d3c daa2 e43b
00000100: f240 98bd 73f7 d9bc f4dc 18bd d01b 99bd
00000110: 320c 49bd 33b6 82bd c525 38bd 9410 853d
00000120: 2ff1 2abd 19a2 09bd fcc6 03bd 0156 553c
00000130: 8b7a 903d 8951 49bd 09fa cb3d fe37 4a3d
00000140: 14a5 18bc a721 c9bd 5beb 3b3c 7561 6dbd
00000150: 173f f33c a966 12bd c9c1 26bd ed65 223d
00000160: 8888 47bd 2281 353d 99db 4f3d c8b2 423d
00000170: 1166 9f3d 5504 a93d 7a82 b43d 8e74 d73d
00000180: 271f 733d d788 4a3b 6029 9ab7 77f2 b93c
00000190: 88b3 fd3d 551c fc3d f820 ff3d bb5b 83bb
000001a0: 3f5b 093e 8238 2abd 3d13 a73d 57fc cf3d
000001b0: 85f7 9ebb e61e 723d 9a2d 443d 49c5 a43a
000001c0: f4fc 323d 25cd cbbc 5ea2 313c d06f f2bc
000001d0: d69e e6bd ca70 6bbd 85a2 1dbc 3940 cc3c
000001e0: 14c7 66bd b52a 843b 496e 373d a763 52bd
000001f0: 43b0 8d3d 4cdf b13d e906 333d 6a83 3b3d
00000200: 2e7d ca3c a899 dfbc 789f 7ebd 9411 1fbd
00000210: 8bb4 103d b411 b83c f152 1a3d bdc1 a73c
00000220: 04c0 603c adb2 063d 6a46 6cbd 858e 1cbc
00000230: 3ccc 64bd 02aa 273d 2fbf 8f3d a38e 9c3d
00000240: f1ab a5bd f499 92bc afbf 533c f5c3 8e3d
00000250: 9e55 c0bc 04da a83b e7f4 843d e8b0 973d
00000260: b2a2 013d 631d 83bd b00d 8cbd d08e 61bd
00000270: 0bec 94bd 5a54 42bd 407b deb6 ae4f 77bd
00000280: d344 88bc e78d a4bd f322 b93c a693 813d
00000290: 1890 a5bd 12e3 e53c c231 913d f232 8c3d
000002a0: 9f20 d13c d89e 96bd 2049 173a c132 b2bd
000002b0: 686e c4bd e479 963c 4572 96bd ab84 08bc
000002c0: 08a8 83bd 0aa7 2ebd c1f1 c43c 96db 84bd
000002d0: e13c 863d 1b32 7c3d 9915 8ebd 9375 7c3d
000002e0: 1c9e 1cbc f768 b4bd 5c96 76bd f97e 64bd
000002f0: c983 aebd fe2a ac3c 906d 1fbc e2e1 3a3d
00000300: 9455 08bd 07c4 2fb9 cd0f 523c d942 cfbd
00000310: 88ff aebd 8c4c 62bc f21d 2b3c 3163 2b3d
00000320: 6b79 85bd 4feb 87bc 40d0 44bd 76ac a13a
00000330: 6a25 a03d d5fd 413d fe0c 833d ecf4 8bbc
00000340: da0a 803c 9b10 32bd 2681 60bd 0ecf 79bd
00000350: 6804 1d3d ef78 cb3d eae6 a13d 079f d13d
00000360: 3282 42bd 55f5 a3bd f42a babd be88 c4bc
00000370: ef40 823d 4f14 32bd 62cf 993d 446f 9d3d
00000380: d72c 5bbc fae9 8abd 122d cebd eb4e ac3b
00000390: 1971 5cbb b894 ebbc f7f3 95bd acd7 db3c
000003a0: 3a73 d4bc 3028 d9bd 398d d63d 9a3f 13bc
000003b0: da8b 403d ca64 f53c 8810 053c 6b3a 903d
000003c0: 7e24 0c3d 0ee8 64bc 0c44 9a3b a865 b03d
000003d0: 9389 b03d e890 923d b233 7b3d 3fe8 31bd
000003e0: 247a 6abd 4169 9ebd 9da1 aabd 99f1 acbd
000003f0: ac83 503d b882 e0bb 7543 313c 4f71 9d3d

layer2.0.bn1.weight f4 [32]
0.91977966 0.9758171 0.9571417 0.9872689 0.97141457 1.0064725 1.028566 1.020971
0.9878749 0.9508655 0.9243353 0.9525044 0.9540958 0.92075235 0.9659814 1.0600411
0.98862195 0.99678767 0.9982381 0.95746404 0.92398185 1.0832983 0.9707421 0.91554797
0.9415213 0.91242254 0.9814298 0.954759 0.93866926 0.89422107 1.0023948 0.94310164
00000000: ae76 6b3f 26cf 793f 3d07 753f a8bd 7c3f
00000010: a0ae 783f 17d4 803f 0da8 833f 2daf 823f
00000020: 5fe5 7c3f ec6b 733f 3da1 6c3f 54d7 733f
00000030: 9f3f 743f 6db6 6b3f 8f4a 773f 6daf 873f
00000040: 5416 7d3f 7a2d 7f3f 888c 7f3f 5d1c 753f
00000050: 138a 6c3f 85a9 8a3f 8e82 783f 5a61 6a3f
00000060: 8a07 713f 8694 693f fc3e 7b3f 166b 743f
00000070: a14c 703f aceb 643f 794e 803f 1c6f 713f

layer2.0.bn1.bias f4 [32]
-0.054807175 -0.00024611063 -0.017501626 -0.050587878 -0.00816302 -0.0024090256 -0.016523028 -0.022954207
-0.01536521 -0.028238216 -0.069974154 -0.012533063 -0.02120925 -0.03418475 -0.065958366 0.062057413
-0.05406243 -0.014106133 -0.025808973 -0.012523585 -0.063520946 -0.0720044 -0.019357812 -0.023174483
-0.027737644 -0.06745197 7.2875846e-05 -0.034898795 -0.017623445 -0.05531998 -0.019703597 -0.02483524
00000000: 7d7d 60bd 6908 81b9 925f 8fbc 3c35 4fbd
00000010: 30be 05bc bee0 1dbb 4d5b 87bc 760a bcbc
00000020: 5dbe 7bbc d553 e7bc 9c4e 8fbd 7a57 4dbc
00000030: 05bf adbc 4f05 0cbd 2e15 87bd ea2f 7e3d
00000040: 9170 5dbd 691d 67bc 576d d3bc b92f 4dbc
00000050: 4517 82bd 0b77 93bd 4694 9ebc 6ad8 bdbc
00000060: 0e3a e3bc 4224 8abd ecd4 9838 0af2 0ebd
00000070: 0b5f 90bc 3497 62bd 7069 a1bc 4673 cbbc

layer2.0.bn1.running_mean f4 [32]
1.2741196 -0.85083973 0.9275217 1.9703453 -0.89260185 0.1721706 0.35692528 0.4683165
-1.3922552 1.6666554 -0.2676966 -1.6038549 -1.294148 0.9371639 -0.54670334 1.3129894
-1.3880196 1.7009954 -0.9872134 -0.07585199 -0.5866874 1.2451669 1.4041339 -0.10834025
-0.44935012 -2.0543976 1.7433716 -0.73039293 -2.4059086 -0.7269479 0.94886875 0.1148113
00000000: 5a16 a33f a2d0 59bf 1072 6d3f 4634 fc3f
00000010: 8e81 64bf 7d4d 303e e9be b63e 2ec7 ef3e
00000020: 6b35 b2bf f754 d53f 870f 89be 1e4b cdbf
00000030: a4a6 a5bf f9e9 6f3f c0f4 0bbf 0910 a83f
00000040: a0aa b1bf 38ba d93f 04ba 7cbf 4a58 9bbd
00000050: 2531 16bf a161 9f3f a9ba b33f 7ee1 ddbd
00000060: 3811 e6be 407b 03c0 cd26 df3f 08fb 3abf
00000070: 68fa 19c0 4219 3abf 10e9 723f 3022 eb3d

layer2.0.bn1.running_var f4 [32]
1.999711 0.71913135 3.2938578 2.4930873 1.6802082 2.1162379 0.97917974 1.1761659
1.3651468 2.7486503 1.0901853 2.4072587 1.4330019 2.5660772 2.0077343 1.5823597
2.115825 2.5277774 0.96998906 1.3073422 0.9102639 1.114038 3.116508 0.7755876
1.299997 1.5355709 2.3890274 1.6538106 3.2998648 1.3587704 2.298372 2.4923246
00000000: 88f6 ff3f fe18 383f 91ce 5240 be8e 1f40
00000010: 1011 d73f 7170 0740 86ab 7a3f 9b8c 963f
00000020: 21bd ae3f e3e9 2f40 318b 8b3f 8710 1a40
00000030: 9b6c b73f 9c3a 2440 b87e 0040 c38a ca3f
00000040: ad69 0740 1bc7 2140 3451 783f fd56 a73f
00000050: 0e07 693f cc98 8e3f de74 4740 e98c 463f
00000060: 4d66 a63f 968d c43f d3e5 1840 11b0 d33f
00000070: fc30 5340 30ec ad3f 8718 1340 3f82 1f40
